…
:"2024-08-10T06:04:22.377464Z","shell.execute_reply":"2024-08-10T06:04:24.263592Z"},"trusted":true},"execution_count":5,"outputs":[]},{"cell_type":"code","source":" vgg19","metadata":{"execution":{"iopub.status.busy":"2024-08-10T06:04:47.473946Z","iopub.execute_input":"2024-08-10T06:04:47.474329Z","iopub.status.idle":"2024-08-10T06:04:47.482900Z","shell.execute_reply.started":"2024-08-10T06:04:47.474285Z","shell.execute_reply":"2024-08-10T06:04:47.481622Z"},"trusted":true},"execution_count":6,"outputs":[{"execution_count":6,"output_type":"execute_result","data":{"text/plain":"Sequential(\n  (0): Conv2d(3, 64, kernel_size=(3, 3), stride=(1, 1), padding=(1, 1))\n  (1): ReLU(inplace=True)\n  (2): Conv2d(64, 64, kernel_size=(3, 3), stride=(1, 1), padding=(1, 1))\n  (3): ReLU(inplace=True)\n  (4): MaxPool2d(kernel_size=2, stride=2, padding=0, dilation=1, ceil_mode=False)\n  (5): Conv2d(64, 128, kernel_size=(3, 3), stride=(1, 1), padding=(1, 1))\n  (6): ReLU(inplace=True)\n  (7): Conv2d(128, 128, kernel_size=(3, 3), stride=(1, 1), padding=(1, 1))\n  (8): ReLU(inplace=True)\n  (9): MaxPool2d(kernel_size=2, stride=2, padding=0, dilation=1, ceil_mode=False)\n  (10): Conv2d(128, 256, kernel_size=(3, 3), stride=(1, 1), padding=(1, 1))\n  (11): ReLU(inplace=True)\n  (12): Conv2d(256, 256, kernel_size=(3, 3), stride=(1, 1), padding=(1, 1))\n  (13): ReLU(inplace=True)\n  (14): Conv2d(256, 256, kernel_size=(3, 3), stride=(1, 1), padding=(1, 1))\n  (15): ReLU(inplace=True)\n  (16): Conv2d(256, 256, kernel_size=(3, 3), stride=(1, 1), padding=(1, 1))\n  (17): ReLU(inplace=True)\n  (18): MaxPool2d(kernel_size=2, stride=2, padding=0, dilation=1, ceil_mode=False)\n  (19): Conv2d(256, 512, kernel_size=(3, 3), stride=(1, 1), padding=(1, 1))\n  (20): ReLU(inplace=True)\n  (21): Conv2d(512, 512, kernel_size=(3, 3), stride=(1, 1), padding=(1, 1))\n  (22): ReLU(inplace=True)\n  (23): Conv2d(512, 512, kernel_size=(3, 3), stride=(1, 1), padding=(1, 1))\n  (24): ReLU(inplace=True)\n  (25): Conv2d(512, 512, kernel_size=(3, 3), stride=(1, 1), padding=(1, 1))\n  (26): ReLU(inplace=True)\n  (27): MaxPool2d(kernel_size=2, stride=2, padding=0, dilation=1, ceil_mode=False)\n  (28): Conv2d(512, 512, kernel_size=(3, 3), stride=(1, 1), padding=(1, 1))\n  (29): ReLU(inplace=True)\n  (30): Conv2d(512, 512, kernel_size=(3, 3), stride=(1, 1), padding=(1, 1))\n  (31): ReLU(inplace=True)\n  (32): Conv2d(512, 512, kernel_size=(3, 3), stride=(1, 1), padding=(1, 1))\n  (33): ReLU(inplace=True)\n  (34): Conv2d(512, 512, kernel_size=(3, 3), stride=(1, 1), padding=(1, 1))\n  (35): ReLU(inplace=True)\n  (36): MaxPool2d(kernel_size=2, stride=2, padding=0, dilation=1, ceil_mode=False)\n)"},"metadata":{}}]},{"cell_type":"markdown","source":"**Layers which we'll be consdiering are 0 , 5 ,10 , 19, 28**","metadata":{}},{"cell_type":"code","source":"class VGG(nn.Module):\n    def __init__(self):\n        super(VG
…
